src/data.pth (torch, 4887 bytes, 6 tensors)

l1.weight f4 [8, 45]
000000 9d 85 66 3e ff d8 58 3f 8c 48 26 bd d3 c3 51 bf
       0.22511907 0.8470611 -0.04059653 -0.8193943
000010 ee e9 aa be 5f da 21 be b2 c2 51 bf eb 10 94 3f
       -0.333816 -0.15805958 -0.81937706 1.1567663
000020 bb 5d e0 3e 4f f3 3a 3f d4 5c 3b 3f bf fc 2c 3f
       0.4382151 0.7302751 0.7318852 0.6757316
000030 eb c7 51 bf 1c 91 b7 3f f6 8e 3d 3f 00 22 d4 3e
       -0.81945676 1.4341159 0.74046266 0.4143219
000040 06 16 15 3d d2 b5 85 3e 43 4b 94 3e 62 04 96 3e
       0.036397956 0.2611528 0.2896367 0.2930022
000050 7d 02 29 3d a0 55 14 3f 97 af 2a 3f f3 6a 3e 3f
       0.04126214 0.57943153 0.6667418 0.7438194
000060 fe 56 d6 3e 56 43 1c be f6 d4 2b 3e 19 14 84 be
       0.41863245 -0.15260062 0.16780457 -0.25796583
000070 65 28 70 3f d9 87 c6 3e 25 32 00 3f 97 8f 17 3f
       0.9381164 0.3877552 0.50076514 0.59203476
000080 01 20 24 be 00 4a 15 3f 12 02 e8 3d d1 14 9b bc
       -0.16027834 0.5831604 0.1132852 -0.018930824
000090 f4 b9 41 3f 54 f7 13 3f 35 30 92 3e 0b d0 51 bf
       0.75674367 0.5779927 0.28552404 -0.81958073
0000a0 94 b3 c6 3e 93 09 69 3e 4e 1d 35 3f 0f 32 8f be
       0.38808882 0.22757559 0.7074784 -0.2796788
0000b0 92 97 c3 3d c6 c6 e2 bd 18 da 5a 3f ef 42 7a be
       0.09550394 -0.11073069 0.85489035 -0.24439596
0000c0 1a a2 97 3f 88 00 41 be 63 bd 96 3e c9 76 63 3f
       1.1846344 -0.18847859 0.29441366 0.88853127
0000d0 b1 60 4f bf 4d e8 bb 3d 49 d6 32 bd 13 bd 0e be
       -0.81006914 0.09175167 -0.04366139 -0.13939314
0000e0 80 c4 28 3f 3c 5e 5a 3f ff 64 4f bf 4d 67 47 3f
       0.65924835 0.8530004 -0.8101348 0.77892
0000f0 ba 16 8a bd 17 07 6e be 1f 37 dd bd eb cf e5 bd
       -0.06742616 -0.23244892 -0.10801529 -0.11221298
000100 26 90 bb bd 92 70 d5 be 3f de ba be e3 3d 47 3f
       -0.091583535 -0.41687447 -0.36497685 0.77828807
000110 05 8b bc be 57 37 a8 be d0 28 c4 3e 97 a2 35 3e
       -0.36824813 -0.3285472 0.38312387 0.17737804
000120 7d da bd 3e eb 82 4a 3f a1 ef 6c be 99 c4 5f be
       0.37080756 0.79106015 -0.23138286 -0.2185234
000130 87 f8 c6 bd 60 81 c1 3e b9 1e 47 3f f6 29 0a 3e
       -0.097153716 0.37794018 0.77781254 0.1349257
000140 5b 80 6b be 32 19 d6 3c ed 29 b2 be e7 c6 e2 bd
       -0.22998182 0.026135061 -0.34797612 -0.11073094
000150 4a 86 80 3f 91 50 bb bd 2d 0f 9c bc e8 9f b3 be
       1.0040982 -0.09146226 -0.019050205 -0.35082936
000160 4e 6b 49 be 08 1b ba 3d ed 0b 31 3e b9 01 f0 3e
       -0.1966984 0.09087187 0.17289706 0.46876314
000170 21 31 6a 3f fd f6 8e 3f 6e 39 b2 bd 07 2f b5 3e
       0.91481215 1.1169125 -0.0870236 0.35387442
000180 e2 cf ac 3f 6f a4 5e bf e6 f2 3c bf 3e 93 e8 bd
       1.3500941 -0.86969656 -0.73808134 -0.11356209
000190 aa 63 51 bf d3 dc a4 3e 39 0a 96 3f fb b2 5e bf
       -0.817927 0.32199726 1.172187 -0.8699185
0001a0 1f 07 e8 3d b4 49 85 3e 59 a7 dc bd 4a 83 7b 3e
       0.11329483 0.26032794 -0.107741065 0.24561802
0001b0 15 a3 65 3e 85 11 b9 3e d8 a1 a1 be 61 3d 12 bf
       0.22425492 0.3614618 -0.3156879 -0.57124907
0001c0 99 4f a3 3e ce 24 79 be dd 3a e6 bc ed 57 a9 3e
       0.31896666 -0.24330446 -0.02810424 0.33074895
0001d0 12 11 bc 3e 8a 06 92 3e c6 aa f7 3e 56 75 3a 3e
       0.36731774 0.28520614 0.48372477 0.18208823
0001e0 3d 50 03 3f 0d e0 19 bf 62 4a 5e 3e fc 97 32 3e
       0.5129431 -0.601075 0.21708062 0.1744079
0001f0 02 6a 26 3e 95 8c 06 be 17 2d 66 bd 1b 4e 9b 3e
       0.16251376 -0.13139565 -0.056195345 0.30333027
000200 bd 85 11 3c 16 51 a0 3f 7f 5e 44 3e 8c 35 b5 3e
       0.008881983 1.2524745 0.19176672 0.35392416
000210 fd 4f 8d 3e 28 6c 1c 3c 3b 8a 30 3e f1 d9 01 3f
       0.2760009 0.009547271 0.1724023 0.5072318
000220 59 92 3d bf 1e b8 25 bf d9 8f 41 3f 60 8c ab 3e
       -0.74051434 -0.64734066 0.7561012 0.33505535
000230 24 14 82 3e c1 84 39 3f a4 f1 ee be 75 4c 9c 3e
       0.2540599 0.7246819 -0.46668732 0.30527082
000240 96 ce 96 3d 02 ab 88 3e 0c 7f 0d bf 2f 67 0e bd
       0.07363622 0.2669297 -0.55271983 -0.034766372
000250 dd 93 74 3f 40 39 37 bf c3 63 8f be d1 68 09 3f
       0.9553812 -0.7157173 -0.280058 0.5367556
000260 9f 92 8f be e0 40 8f be c7 4e 8f be 87 03 62 3f
       -0.2804155 -0.27979183 -0.2798979 0.8828663
000270 45 39 c4 be 1b 25 20 bf 41 3b b5 be 44 5d 56 3d
       -0.38324943 -0.6255662 -0.3539677 0.05233504
000280 50 b7 6c 3e 1c 76 bc 3e 21 7d 1a 3e a5 e6 18 bf
       0.23116803 0.3680886 0.15086795 -0.59726936
000290 a7 97 19 be 58 8b 4f 3c d9 ca a2 be 4f ea b4 3e
       -0.14999257 0.0126674995 -0.31795385 0.35335013
0002a0 30 09 0d bf a3 8d 2e 3e 0f 49 0f 3f 4a c0 20 3e
       -0.55092144 0.17046218 0.55970854 0.15698352
0002b0 7d aa f4 be 22 cf f6 be 4f a4 3a 3f 2a 57 8f be
       -0.47786322 -0.48204905 0.72906965 -0.27996188
0002c0 ed d4 0f 3f 82 c2 16 bf 49 10 c5 3e 17 d1 87 3e
       0.56184274 -0.58890545 0.38488987 0.2652671
0002d0 b0 be 50 3c 8b c5 1f 3f 3f 86 22 be e7 84 38 3f
       0.012740776 0.624108 -0.15871523 0.7207779
0002e0 a5 dd 19 be 4f fd 24 3f eb e6 56 3f 2b 22 7a be
       -0.15025957 0.6444902 0.839461 -0.24427097
0002f0 b8 dd b4 bd 1f 3e c0 3d 5d 33 84 be 76 62 26 3f
       -0.08831352 0.09386849 -0.25820437 0.6499399
000300 73 76 70 3e e0 89 36 bf d1 3c 3a 3f 38 f6 17 3f
       0.23482685 -0.7130413 0.7274905 0.59360075
000310 7d 75 32 be 75 0c 18 3f 31 9b 2a 3f 90 3f f3 3e
       -0.1742763 0.5939401 0.66643053 0.47509432
000320 9f e0 c3 be d1 bd 34 be 44 4c 47 3f 52 b5 66 3f
       -0.3825731 -0.17650534 0.7785075 0.9012042
000330 70 be b4 be c0 7a 2d 3f c6 b6 13 be 7a 59 1d 3f
       -0.35301542 0.67765427 -0.14425191 0.61464655
000340 7a fa 47 3f a0 1a e7 be 8b 82 de bd 82 90 b7 bd
       0.7811657 -0.451375 -0.10864743 -0.089631096
000350 60 21 1e 3f 90 b1 43 3f 02 12 46 3d d5 dd 61 be
       0.61769676 0.76442814 0.048357017 -0.22057278
000360 67 c8 a4 3d 1d d0 e4 be 8b d1 7b 39 1a 69 49 3f
       0.08046036 -0.44690028 0.00024015286 0.78676
000370 9d b9 2a 3f 99 72 15 bd 43 6f 92 3f 53 7b 57 be
       0.66689473 -0.036486242 1.1440204 -0.21043138
000380 79 24 41 3c 9a 22 2f 3e 05 c3 13 3f cd 1a 07 3f
       0.011788481 0.17103043 0.5771945 0.5277527
000390 ba c1 b1 3e 00 9b 23 be 0e 62 0d bf 77 c4 a4 3e
       0.34718114 -0.15977097 -0.55227745 0.3218114
0003a0 25 0e e2 3e b2 32 d0 3e fe 0f 7e bd e1 03 40 3f
       0.44151416 0.40663677 -0.06202697 0.7500592
0003b0 40 00 1b 3f 2d ff 0b 3f 66 60 0d bf c7 20 45 3f
       0.60547256 0.5468624 -0.5522522 0.7700314
0003c0 5f 9d bf bd d4 01 c4 3e 0f 6d c6 bd 99 7f 6a bd
       -0.09356188 0.38282645 -0.0968877 -0.057250593
0003d0 2e fa f3 bd 1d 1e ff 3e 32 fd 23 3f 1b c5 0f 3f
       -0.11912952 0.49827662 0.6405822 0.56160134
0003e0 2f d4 b6 3c 66 42 33 3f 1a 5d 0d bf c1 bb 0e 3e
       0.022317974 0.7002319 -0.55220187 0.1393881
0003f0 77 60 0d bf 25 6f 05 3f c7 85 26 3f e6 ee 1f 3f
       -0.5522532 0.5212272 0.6504788 0.62473905

l1.bias f4 [8]
000000 b0 c6 51 3f 77 66 4f 3f a5 a8 5e 3f 28 84 9c 3f
       0.819438 0.81015724 0.8697608 1.2227831
000010 0c 90 36 3f ea 60 0d 3f 78 16 a6 3f 08 c7 75 3f
       0.7131355 0.55226004 1.2975607 0.9600682

l2.weight f4 [8, 8]
000000 53 d3 b9 3f b1 2c 54 be b8 cd 70 be 5e 7b df bf
       1.4517616 -0.20720173 -0.23515975 -1.7459524
000010 a1 7a 71 be 4c df 7f 3f 3a 58 b7 3e 85 8b a3 3f
       -0.23581935 0.999501 0.358095 1.2776953
000020 e8 43 69 3f 1f 3d 9e bf e4 fb 8c be 35 c9 9e be
       0.9111924 -1.2362403 -0.27535927 -0.31012884
000030 50 43 cc 3d 17 67 a0 3e e4 d4 84 bd 7c 8c 9b 3f
       0.09973776 0.3132865 -0.06485918 1.2152247
000040 14 12 77 3f f0 98 44 bf e3 4a a3 be 7a c4 68 3f
       0.9651196 -0.76795864 -0.31893072 0.909248
000050 7b 02 9a bf bb 14 47 3f 53 40 37 3f 14 ef 70 bd
       -1.2032007 0.7776601 0.71582526 -0.058821753
000060 e1 d7 99 3f 23 e5 88 3f fb cb 8d 3f ff 16 c2 bf
       1.2019006 1.0694927 1.1077875 -1.5163268
000070 16 25 9c 3f 32 c1 b4 3f f9 25 ad bf d3 83 4f bf
       1.2198818 1.4121459 -1.3527213 -0.8106052
000080 93 ba cf 3f 89 5b 57 be 73 7f 58 bf c7 7b a5 bc
       1.6228813 -0.21031012 -0.8456947 -0.020200623
000090 87 75 6f 3f 82 1a 8c bf 8a 8f 8f 3f 42 e5 31 3f
       0.9353871 -1.094559 1.121568 0.69490445
0000a0 d7 34 06 3f 00 97 a0 bf de 4e a3 bf 58 c3 6a 3f
       0.5242438 -1.2546082 -1.2758443 0.9170432
0000b0 e7 2d 14 bf d2 8a 57 3f 50 1a ad 3f 07 57 0f bf
       -0.5788254 0.841962 1.3523655 -0.5599217
0000c0 f5 e3 88 be 81 97 bc bd a2 7f 91 be 43 8d 83 3e
       -0.26736417 -0.092085846 -0.2841769 0.25693712
0000d0 93 ac 55 be fa 9f 08 3e 90 69 a3 be 32 6c e6 bd
       -0.20866613 0.13342276 -0.31916475 -0.11251105
0000e0 21 67 3f bf 1f 59 44 3f 24 40 b4 3f ba 6a 29 3d
       -0.7476674 0.7669849 1.4082074 0.041361548
0000f0 72 ef 98 3f 03 35 04 39 3f f4 e9 3f 81 fa 01 40
       1.1948073 0.0001260825 1.8277663 2.0309145

l2.bias f4 [8]
000000 a8 8c e7 3d bd 89 50 be b6 fe 45 3f 7a 9f 8a 3e
       0.11306125 -0.20365043 0.77341783 0.27074796
000010 3d f1 1a 3f d0 e7 39 3e db 59 1e be 9c 6c 1d 3f
       0.6052435 0.18154836 -0.15463965 0.6149385

l3.weight f4 [10, 8]
000000 7f 93 f1 bf c2 d0 b4 be 4c 75 60 bf 06 69 8f 3f
       -1.8873137 -0.3531552 -0.8767898 1.1203926
000010 fa 2d b1 bf 9f c1 13 bf ff 0f f9 3c 49 03 0d be
       -1.3842156 -0.5771732 0.030403135 -0.13770784
000020 9a d1 9e 3e 18 ef fb 3e ea 8a 49 3e 9e 17 d7 3d
       0.31019288 0.49205852 0.19681898 0.105025515
000030 1c 77 9c bf 81 04 d5 bf 59 af 4f 3e 17 09 79 be
       -1.2223849 -1.6642 0.20281734 -0.24319874
000040 83 b6 01 3e d7 45 39 3e 36 51 01 bd 39 9c 99 bf
       0.12667279 0.18093048 -0.03157159 -1.20008
000050 32 e3 93 3e 30 80 93 be 5d b5 76 3b ba 4a ee bd
       0.28884274 -0.28808737 0.0037644722 -0.11635347
000060 2c 32 f1 bf 50 b8 4d bf 1c 9d 76 bf 1a 68 96 be
       -1.8843436 -0.80359364 -0.9633348 -0.29376298
000070 95 c6 dd bf d2 2a 22 bf a2 e2 10 3e 78 72 85 3f
       -1.7326227 -0.6334659 0.14148954 1.0425558
000080 95 c3 cd bf 75 5e b0 bf 3f 9f e1 3e 40 25 74 bf
       -1.6075312 -1.3778826 0.44066808 -0.9536934
000090 c3 e5 f8 3c 87 6a d3 3e e7 7d d8 bd 14 55 26 3e
       0.030382996 0.4129221 -0.10570889 0.16243392
0000a0 37 e2 a6 bf df 62 93 be 9b 5e 5c 3f ec 32 5c bf
       -1.3037785 -0.2878637 0.86081856 -0.860152
0000b0 16 8b 5e 3f 24 d0 da 3e 90 62 84 3e 2c 0b e9 bf
       0.8693098 0.42736924 0.25856447 -1.8206534
0000c0 d3 69 a3 bd 9a 02 14 3f a0 16 a9 bf e2 38 0a bf
       -0.07979169 0.5781647 -1.321003 -0.53993046
0000d0 5e d7 17 3f d0 1c ca bf 6d 7e c0 3d 44 81 b6 3d
       0.59313 -1.5790043 0.09399114 0.08911374
0000e0 95 e4 7b 3e fa bf 4c 3e 9c 55 db 3e 73 1c ed bb
       0.24598916 0.19995108 0.42838752 -0.0072360574
0000f0 c9 ff 0f bf 7d 9d a8 3e 86 5e 71 bd ff eb ad bf
       -0.5624967 0.32932654 -0.058928035 -1.3587645
000100 42 a3 26 3f 5d da eb bf d3 24 8c bf 63 7a 87 3d
       0.6509286 -1.8426014 -1.0948738 0.0661514
000110 ad c6 94 3d 1c f4 99 bf 08 59 a4 3c 83 01 1f 3e
       0.07264457 -1.2027621 0.020061985 0.1552792
000120 b6 3d b8 bf 65 87 9a bf b7 90 d1 be 9d 44 ca bf
       -1.4393833 -1.2072569 -0.4093072 -1.5802189
000130 32 dc 4a 3f cb 8a d3 bf 68 da 9c be b7 4e 36 3f
       0.7924224 -1.6526731 -0.3063538 0.7121386

l3.bias f4 [10]
000000 17 d6 14 3e 51 de 9f be a4 2d b8 be b4 c9 5e 3f
       0.14534794 -0.312243 -0.3597232 0.87026525
000010 27 0c 5b 3e 4a 14 40 3e c0 1b d2 be 51 77 4a bc
       0.21391355 0.1875774 -0.41036797 -0.012357549
000020 c7 91 0a bd 81 42 99 3e
       -0.03383043 0.2993355
